 Loading feature files...
 <s> = 1
 </s> = 2
 All scenes loaded.
 Hyperparameters:Namespace(LR=0.01, alternatives=1, batch_size=100, dec='LSTM', dropout=0.3, epochs=20, hidden_sz=50, load='True', log_interval=10, model='ss1', no_cuda=False, save=None, seed=1)
 Listener0: Listener0Model(
  (scene_encoder): LinearSceneEncoder(
    (fc): Linear(in_features=280, out_features=50)
  )
  (string_encoder): LinearStringEncoder(
    (fc): Linear(in_features=1063, out_features=50)
  )
  (scorer): MLPScorer(
    (dropout): Dropout(p=0.3)
    (linear_4): Linear(in_features=50, out_features=50)
    (linear_5): Linear(in_features=50, out_features=50)
    (linear_3): Linear(in_features=50, out_features=1)
  )
)
 Speaker0: Speaker0Model(
  (scene_encoder): LinearSceneEncoder(
    (fc): Linear(in_features=280, out_features=50)
  )
  (string_decoder): LSTMStringDecoder(
    (embedding): Embedding(1063, 50)
    (lstm): LSTM(50, 50, num_layers=2, batch_first=True, dropout=0.3)
    (linear): Linear(in_features=50, out_features=1063)
    (dropout): Dropout(p=0.3)
  )
)
 Loading saved model l0207.pth into Listener0 ...
 Model loaded.
 Loading saved model s0206.pth into Speaker0 ...
 Model loaded.
 SamplingSpeaker1Model: SamplingSpeaker1Model(
  (listener0): Listener0Model(
    (scene_encoder): LinearSceneEncoder(
      (fc): Linear(in_features=280, out_features=50)
    )
    (string_encoder): LinearStringEncoder(
      (fc): Linear(in_features=1063, out_features=50)
    )
    (scorer): MLPScorer(
      (dropout): Dropout(p=0.3)
      (linear_4): Linear(in_features=50, out_features=50)
      (linear_5): Linear(in_features=50, out_features=50)
      (linear_3): Linear(in_features=50, out_features=1)
    )
  )
  (speaker0): Speaker0Model(
    (scene_encoder): LinearSceneEncoder(
      (fc): Linear(in_features=280, out_features=50)
    )
    (string_decoder): LSTMStringDecoder(
      (embedding): Embedding(1063, 50)
      (lstm): LSTM(50, 50, num_layers=2, batch_first=True, dropout=0.3)
      (linear): Linear(in_features=50, out_features=1063)
      (dropout): Dropout(p=0.3)
    )
  )
)
 ['<s>', 'nervous', 'follows', 'reach', 'tree', '</s>', '*invalid*', '*invalid*', '*invalid*', '*invalid*', '*invalid*', '*invalid*', '*invalid*', '*invalid*', '*invalid*', '*invalid*', '*invalid*', '*invalid*', '*invalid*', '*invalid*']
 ['<s>', 'hold', 'follows', 'reach', 'tree', '</s>', '*invalid*', '*invalid*', '*invalid*', '*invalid*', '*invalid*', '*invalid*', '*invalid*', '*invalid*', '*invalid*', '*invalid*', '*invalid*', '*invalid*', '*invalid*', '*invalid*']
…
